…
model = tf.keras.Model(inputs=base_vgg.input, outputs=out)
model.compile(optimizer=tf.keras.optimizers.RMSprop(lr=1e-4),
                loss='binary_crossentropy',
                metrics=['accuracy'])
model.summary()
# Output
Model: "model_1"
_________________________________________________________________
Layer (type)                 Output Shape              Param #   
=================================================================
input_2 (InputLayer)         [(None, 125, 125, 3)]     0         
_________________________________________________________________
block1_conv1 (Conv2D)        (None, 125, 125, 64)      1792      
_________________________________________________________________
block1_conv2 (Conv2D)        (None, 125, 125, 64)      36928     
_________________________________________________________________
...
...
_________________________________________________________________
block5_pool (MaxPooling2D)   (None, 3, 3, 512)         0         
_________________________________________________________________
flatten_1 (Flatten)          (None, 4608)              0         
_________________________________________________________________
dense_3 (Dense)              (None, 512)               2359808   
_________________________________________________________________
dropout_2 (Dropout)          (None, 512)               0         
_________________________________________________________________
dense_4 (Dense)              (None, 512)               262656    
_________________________________________________________________
dropout_3 (Dropout)          (None, 512)               0         
_________________________________________________________________
dense_5 (Dense)              (None, 1)                 513       
=================================================================
Total params: 22,647,361
Trainable params: 2,622,977
Non-trainable params: 20,024,384
_________________________________________________________________
```
从整个输出可以明显看出，在我们的模型中我们有了很多层，我们将只利用 VGG-19 模型的冻结层作为特征提取器。你可以使用下列代码来验证我们的模型有多少层是实际可训练的，以及我们的网络中总共存在多少层。
```
print("Total Layers:", len(model.layers))
print("Total trainable layers:", 
…
