…
57. L. Zhang, S. Tan, and J. Yang, “Hearing Your Voice is Not Enough: An Articulatory Gesture Based Liveness Detection for Voice Authentication,” in *Proceedings of the 2017 ACM SIGSAC Conference on Computer and Communications Security*. ACM, 2017, pp. 57–71.

58. D. L. Davis and L. Smith, “Authentication System Based on Periodic Challenge/Response Protocol,” Jul. 11, 2000, US Patent 6,088,450.

## Appendix

### A. The Configuration of the CNN-based PCR Decoder

Table VI shows the detailed architecture of our CNN-based PCR Decoder to decode the spectrograms of each PCR digit.

| Layer                         | Output Shape  | Parameters  | Activations  |
|-------------------------------|---------------|-------------|--------------|
| Input: PCR Spectrogram         | (40, 98, 1)   | 0           | 3920         |
| Conv2D + ReLU                 | (40, 98, 12)  | 120         | 47070        |
| Max Pooling                   | (20, 49, 12)  | 0           | 11760        |
| Batch Normalization           | (20, 49, 12)  | 24          | 11760        |
| Conv2D + ReLU                 | (20, 49, 24)  | 2616        | 23520        |
| Max Pooling                   | (10, 25, 24)  | 0           | 6000         |
| Batch Normalization           | (10, 25, 24)  | 48          | 6000         |
| Conv2D + ReLU                 | (10, 25, 48)  | 10416       | 12000        |
| Max Pooling                   | (5, 13, 48)   | 0           | 3120         |
| Batch Normalization           | (5, 13, 48)   | 96          | 3120         |
| Conv2D + ReLU                 | (5, 13, 48)   | 20784       | 3120         |
| Conv2D + ReLU                 | (5, 13, 48)   | 20784       | 3120         |
| Max Pooling                   | (5, 1, 48)    | 0           | 240          |
| Dropout                       | (5, 1, 48)    | 0           | 240          |
| Fully Connected + Softmax     | (2)           | 482         | 2            |
| Output: Probability Distribution | (1)         | 0           | 0            |

### B. Stimulus Signal Duration and Bandwidth Study

Figure 16 illustrates the impacts of the stimulus signal’s duration and bandwidth on the PCR verification accuracy.

#### (a) Duration
- **X-axis:** Time Length (ms)
…
